CPU_generated vals/W1.npy (npy, 62848 bytes, 1 tensors)

array f8 [10, 784]
0	0x3fb024aa7d6ec450	0.06305947840043413
1	0xbfd8ae81f4457cd8	-0.385651100679707
2	0x3fc8ac1caaad0144	0.19275244077472042
3	0x3fd8c4ba4a148c52	0.38700730547333706
4	0x3fd5645767d947e6	0.33424935475807016
5	0x3fb75254dcc71608	0.09110002889709545
6	0x3fcb94fcd1ebeda4	0.2154842400558269
7	0x3fd4541e381d5c04	0.31763415794324623
8	0xbfd91c111683b30e	-0.3923380584590611
9	0x3fc92f7d9d976288	0.19676180071725846
10	0xbfdc6da0cb3d2770	-0.44419116828486604
11	0xbfcf5b6d2984ced4	-0.24497761275562502
12	0xbfd9f146f10da539	-0.40535138645516927
13	0xbfbe6f813853f1bc	-0.11888892769997644
14	0x3fd892607b5e4847	0.38393413589176756
15	0xbfcb8c4c8285ddd8	-0.2152190816229751
16	0xbfce27be1907b3c8	-0.23558784696743218
17	0xbfd3f68e941214d4	-0.31192364177725307
18	0x3fae036ae6f95b80	0.05861982411868549
19	0x3fdd659b405a7ce4	0.4593265655948484
20	0x3fd77d3c16adb9e2	0.3670187207671046
21	0x3fda05fa6dcf465e	0.4066148826942476
22	0xbfb83caeb8568678	-0.09467594147147362
23	0xbfcc79015f061eb4	-0.22244279041136894
24	0xbfa82c9d8ccfc0f0	-0.04721538871661035
25	0xbfbc121e17073c80	-0.10965145170415447
26	0xbfc90d8793280d0c	-0.19572539029477587
27	0x3f821d34febece00	0.00884477045460752
28	0xbfd079ddfce6a0d8	-0.2574381799445411
29	0x3fc3d7789665cbdc	0.15501315444598063
30	0x3fb5dd7e961d08b0	0.08541098751905696
31	0xbfd2f67dd4d09660	-0.29629464895911006
32	0x3fdf7d55bae61fab	0.49202483417365767
33	0x3fb4d980e81cec93	0.08144384066410941
34	0xbfc6d6f670c942a9	-0.1784351397241342
35	0x3fd08f9382f856a5	0.25876319685026267
36	0x3fc2df181f53be41	0.14743329553265208
37	0x3fb064a27eb9d26e	0.06403556436436883
38	0xbfd5dd5e710550fd	-0.3416362861364773
39	0xbfc1a2a406654617	-0.13777590095792
40	0x3fdd64981d28e15b	0.45926478240609975
41	0x3fc8000bc7d25a20	0.18750140435140938
42	0xbfdd465dde190de7	-0.45741984071011504
43	0x3fdea77c5b67bb55	0.47897252012528685
44	0x3fcefb4c66115066	0.24204401954432625
45	0xbf83f034dc0744cb	-0.009735501255735099
46	0xbfc2b8714ebc2539	-0.14625374168853414
47	0x3f8a35904d075d00	0.012797477102977073
48	0x3fdb73925d29aa21	0.4289289388458731
49	0x3fc7476d4a0d67f8	0.1818672763427569
50	0x3fd42b9bc5a41b2f	0.31516165066607277
51	0xbfadba5d9dcebd1e	-0.058062482370013976
52	0x3fdafdc5647052fc	0.4217389565322234
53	0x3fdb3bc90428bbb8	0.4255240002266265
54	0xbfd0c63056bdaaf4	-0.2620964858130457
55	0xbfd59f33cf16a80a	-0.33784194205748064
56	0xbfb15feab29dca40	-0.06786982403517872
57	0xbfa37a13f3aad950	-0.038040755743554144
58	0x3fd80e2461434b60	0.3758631658394531
59	0x3fcbf651a0cbaa1c	0.21845455504747313
60	0xbfd5517685794496	-0.3330971053556565
61	0x3facdf3173edb11d	0.056390328790117496
62	0xbfdbec6662569781	-0.43630370715469985
63	0x3fbfb4951424f151	0.12384921781353354
64	0x3fdcdee4311acc47	0.4511042098558317
65	0x3fd4f6f23314b3ce	0.32757239330640864
66	0xbfd0ebfdeaac7128	-0.26440380017608556
67	0xbfd0b549e5b92290	-0.26106498178391124
68	0xbfe04034a4a5c841	-0.5078376022122556
69	0x3fb0bb553fcdbbdc	0.06535847480493778
70	0x3f6ff40b6bf251bd	0.003900549228612797
71	0x3fba5f20bdb6df11	0.10301403648088249
72	0x3fbcfd8725847e86	0.1132435289950938
73	0x3fd2eb68349c8dd0	0.2956181062492904
74	0xbfc4434484b60ff8	-0.15830284576452391
75	0x3fe36b57d18f5c4e	0.6068533986061853
76	0xbfd1c4862be2b950	-0.277619879586287
77	0x3fd819d7532f642f	0.3765772163729392
78	0xbfcc8f52dc152dbc	-0.2231238913176251
79	0xbfb1c2670ecd8286	-0.069372597803076
80	0x3fd8fe60d70899d4	0.39052601813673715
81	0x3fc3567b407c2ffb	0.15107670448958274
82	0xbfd72f3b41ab89ce	-0.36225778019993704
83	0x3f8974f9fa47d440	0.012430146170098522
84	0xbfdeacd94843b6be	-0.4792998510082319
85	0xbfd4f792ec2adec0	-0.327610712654387
86	0xbfcc13536abe17bc	-0.2193397780612808
87	0xbfb38acb2f54da06	-0.07633657365372679
88	0xbfda9e9b7e2d4095	-0.41593062707853196
89	0x3fb9cd77011877d6	0.10079139496562503
90	0xbfd1b72fe8225a6c	-0.27680585545878134
91	0xbfd51e3d422a9bd6	-0.3299706598431248
92	0xbfdd78345b7a8fa1	-0.4604617017123421
93	0x3fc597c1e16fb51e	0.16869376666674268
94	0xbfd6a686a39cfc14	-0.3539139364037862
95	0xbfdd0d718d416534	-0.4539455298850783
96	0x3fd53609260a835f	0.33142307963321643
97	0xbfd343dbecd6165a	-0.30101678970854595
98	0x3fd7b5fd12136d1e	0.3704827000162413
99	0x3fa782d6fe96ade1	0.045920103624066184
100	0x3fd98c6b5cf9c7c3	0.39919551925333624
101	0x3fcec2f6ce6927c6	0.24032483175898117
102	0x3fc816cec237a950	0.18819603427193465
103	0x3fe7296070e062f9	0.7238008694285717
104	0x3fe575c2d0004cc3	0.6706251204035641
105	0x3fd757bc8576afed	0.3647300055843051
106	0x3fbcfb2317a00d21	0.11320704771792524
107	0x3fd0cfe1a45a8c08	0.26268807459035814
108	0xbfcd9806d896b8f7	-0.23120198798773803
109	0x3fdcc9c6d655e3b7	0.4498154729004073
110	0x3fb25a8609ef0478	0.0716937803508858
111	0xbfd13578b56c1dd8	-0.268888642473454
112	0x3fd14a394fe1f556	0.27015526581802385
113	0x3f920d952b58bddc	0.01762993886057794
114	0xbfdb5c7f19e5315d	-0.4275205376514089
115	0xbfd3e358398e6300	-0.31075101490709756
116	0xbfda6ab5fc9d4aab	-0.41276311559082995
117	0xbfc42cc505ae0476	-0.1576162603123838
118	0x3fd06388d9b55399	0.25607510815216866
119	0xbfc9c1becb6de2fb	-0.2012251370722636
120	0xbfc29a6b83fedd53	-0.14533752389045648
121	0xbfb75a73f01f1c95	-0.09122395145742453
122	0x3fc96989663f5759	0.19853322498846174
123	0xbfb99959c6a4049b	-0.09999619578958845
124	0x3fbd937a2544c28f	0.11553157243612076
125	0x3fb4c729f1e95b47	0.08116399913829496
126	0xbfc8b7bc8adf5df8	-0.19310719281087052
127	0x3fa4dff18529d3b7	0.04077105284242271
128	0x3f9b4b18fa91e757	0.02665366200788041
129	0xbfb8e333188d5f9a	-0.09721679067058489
130	0x3fccf339a3c017e6	0.226172642666085
131	0x3fc4fa3e3041f9c6	0.163886807978953
132	0xbfc755d6dc18ede6	-0.1823071074194182
133	0x3fcd20e9f6977dd7	0.22756695309270356
134	0x3fd5532d651e18b5	0.3332017409778801
135	0x3fe8d32ff48584de	0.7757797027408306
136	0x3fd687add7489dc3	0.3520311930064645
137	0x3fdd6e3ebafef831	0.4598538232929768
138	0xbfdba9b1e69704a8	-0.4322323562483441
139	0x3fa0a49b12127cf0	0.03250584216697827
140	0x3fa9d121ec2f9e30	0.05042367942934012
141	0xbfce3e741caa8d5c	-0.23628093147008655
142	0x3fdcd7cd641e29b6	0.4506715276444554
143	0x3fd9e660b74d76c0	0.4046861448349368
144	0xbfdae73ebdcebc9a	-0.4203640798177247
145	0xbf8924015661ea45	-0.012275705765422926
146	0x3fd63cf414ed319c	0.34747030299765824
147	0xbfc9251b1b5ec33c	-0.19644488178666986
148	0xbfd9ec63c010037e	-0.40505307918652267
149	0x3fc6d355d90ab050	0.17832444284192883
150	0x3fb57719dab33b19	0.08384858693464671
151	0xbfd433466752f106	-0.3156295784972517
152	0x3fc4a6ac03d109e5	0.1613364237437757
153	0xbfb855858496cf4d	-0.09505495535887327
154	0xbfa7a6e01ae7d165	-0.04619503334461931
155	0x3fca478e22b2feb6	0.20530869192406492
156	0xbfc61e8aa6b074f7	-0.17280705584645492
157	0x3fba4a7dfdb35a03	0.1026991600404941
158	0x3fc910c93083b28f	0.19582476490849784
159	0x3f94070fd1d7fa61	0.019558188612786135
160	0xbfb8113b48997e47	-0.09401293299151191
161	0xbfb67fe0141d0d3c	-0.08788872233440242
162	0x3fd5b4d6fa537197	0.33916258283513784
163	0x3fd08ddbd214c840	0.2586583663534192
164	0x3fca2c69c3aea6d0	0.2044803815345433
165	0xbfd5b2ef0e0abb96	-0.33904625293046686
166	0xbfd1078690fc70be	-0.2660843292121732
167	0xbfc40c59f8dc72bd	-0.1566269364492622
168	0xbfc60f02819d2d38	-0.1723330624466628
169	0xbfc0ac345c9e8157	-0.1302552654497144
170	0x3fd4e11397cb2325	0.32623758147797083
171	0xbfd3028ade91b659	-0.2970301793601258
172	0x3fca32d9831ba9ca	0.2046768083740303
173	0xbf81f471ee6e2dd3	-0.008767023171251253
174	0x3fac7fc4db4fa950	0.05566229989183802
175	0x3fbf8adc6c038a7c	0.12321260106140558
176	0x3fa2c2f5e620c0b6	0.036643680898465744
177	0x3fb11648ebd28123	0.06674628980045276
178	0x3f9004cea71b3d92	0.01564333815514158
179	0x3fc64ac3836ae312	0.17415660778876735
180	0x3f8fe86192bb5528	0.015579950609586904
181	0xbfc0ac1ec4de9a82	-0.13025269139071233
182	0x3fc864310759c15f	0.19055760249058104
183	0x3fce5ec54524042c	0.2372671687699336
184	0x3f6c6a6072e86577	0.003468693138768127
185	0x3f9848a8ca8e163c	0.02371467338845988
186	0x3fc7e182fe69b04b	0.1865695707559801
187	0x3fc23b25c84632ee	0.14243004111303698
188	0x3fc62ff6670c0522	0.17333869964208143
189	0x3fa382eee2718b2a	0.03810831560328716
190	0xbf8db38503021854	-0.014502562670042497
191	0x3fc71aa286d44072	0.1805003317208534
192	0x3fe010cb9c06461c	0.5020502135614069
193	0x3fe6f2909f1f546f	0.7171099765643144
194	0x3fc0dc3fcf8e91ab	0.1317214740239597
195	0x3fb96fa1811ba33f	0.09935960199403569
196	0xbfb4d7c7e69a16e8	-0.0814175546639394
197	0xbfcbda78b4710f48	-0.2176047211706822
198	0x3fa441d7cd209d0c	0.039564842023816466
199	0x3fbfcb11ae61941e	0.12419233805992788
200	0xbfc043d410db4123	-0.12706995795316187
201	0x3fbaae549eb30509	0.10422257303709527
202	0xbfb8e83a0fc4e4d5	-0.09729349980343056
203	0x3fbff484754d3576	0.12482478965576668
204	0xbfd0ce3cea355ff6	-0.2625877654259051
205	0x3fb5457a2d520285	0.08309138876394158
206	0x3f84e170186ddcc7	0.010195613618391509
207	0x3fbd6affb642cb9f	0.11491392326096993
208	0x3fd3ca63416b0484	0.3092277659271263
209	0x3f9c254d9181cb23	0.02748604965786251
210	0x3fd4e69dd07b1dde	0.3265757118174103
211	0x3fc19d76a631f0c5	0.13761790385240694
212	0x3fcf928323524555	0.24665869927097597
213	0x3fd427a89a1f8e77	0.31492056895351744
214	0x3fc3d17b7b49de01	0.15483039398144174
215	0x3fb0b04aa07abd86	0.06518999498324804
216	0x3fcdc3f0fc07c753	0.2325421553246608
217	0x3fc909b4138c1f6e	0.19560862497769044
218	0xbfd4c120f69678b1	-0.32428764420354655
219	0x3fd39f2c93b98658	0.30659021784058416
220	0x3fde06344395bcca	0.4691286716469675
221	0x3f927cca37cdbad4	0.018054160743697548
222	0xbfc5bc88a5c718e0	-0.16981609434714695
223	0xbfd9f4820bc04689	-0.4055485834843258
224	0xbfddb9fdd28817e6	-0.4644770198796081
225	0x3fd1442231c69112	0.269783543213877
226	0xbfd832332d58ce00	-0.3780639593926196
227	0xbfb8a0424546dae2	-0.09619535628631184
228	0xbfd0e273eb7821c7	-0.2638215827469392
229	0xbfdfdc4e65ac2b41	-0.497821425714097
230	0x3fb6fbad3dc4482c	0.08977778203942027
231	0xbfd361a61ca6e620	-0.3028350143245877
232	0x3f91a73848bc74c0	0.017239455642187762
233	0x3fd10b906627ac36	0.2663308141333717
234	0xbfbc6916caa547a7	-0.11097853133585876
235	0x3fa978cbd13a48a4	0.049749726572501346
236	0xbfac0d1bd16b20a7	-0.05478751117112895
237	0x3fd022a7c1d93169	0.2521151917506104
238	0x3f95f97d315c9e4d	0.021459537637524218
239	0xbfbb73a235dec673	-0.10723317923727808
240	0x3fb5e16b998316cc	0.08547089097836674
241	0x3fca13eea8929b1d	0.20373328429305895
242	0x3fc0ff644599fc17	0.1327939357615555
243	0x3fc6fc8e621d9013	0.17958240309519677
244	0x3fd5b214a0372f65	0.3389941753964563
245	0x3fd01ab86d17d3a0	0.2516308846818962
246	0x3fe691d99542ac52	0.7053039469950682
247	0x3fe3f634d4991dec	0.6238044884020701
248	0x3fd35678ad693d6f	0.3021527951686584
249	0x3fcfe0c9f13cc8e5	0.24904751090213675
250	0xbfc3338679f3231a	-0.1500099273164544
251	0x3fd6c663e848658d	0.35585878070704596
252	0x3fdccca7263266b1	0.44999102335132607
253	0x3fd0f61f429fb630	0.26502210146176974
254	0x3fcbb224fb22bfe4	0.21637403738486605
255	0xbfcf1412765307f1	-0.24280005242877636
