CPU_generated vals/W2.npy (npy, 928 bytes, 1 tensors)

array f8 [10, 10]
00000000: ae62 eaad f64e c4bf ec2c f7cd 5ac1 c33f
00000010: b259 cb9a a74a f4bf 1ebc be45 843d e6bf
00000020: 7257 deeb 71cf f43f 31fc 8d88 f0a3 dfbf
00000030: 8c0d 1d4b 9521 e9bf e6b5 8020 fae0 e23f
00000040: c45f 4e95 d321 dabf 65a6 4cb3 1884 d4bf
00000050: 6237 f544 b02d f03f ad58 3811 988c d8bf
00000060: 7a02 8de1 502b d8bf 7305 2e18 fe7f f03f
00000070: ef6f a510 94a1 e3bf 14df b9f3 d124 ef3f
00000080: f6fe 0373 634b e53f 3e33 13d5 e2b0 f7bf
00000090: 0d88 cdbb fb64 df3f dd6d 9055 25ad d33f
000000a0: 785b 541b 0f0f f7bf 503b 8598 0d8e e73f
000000b0: 2e26 54d4 9573 d63f 83c5 dab8 7a5f f2bf
000000c0: 2382 41b0 c703 dd3f a359 bcf8 f759 f93f
000000d0: a6bc 4566 4450 f43f be35 3cd3 00c5 9bbf
000000e0: 9fa1 b908 4c96 e8bf ce36 87cb 4568 e1bf
000000f0: 5b9c 3737 34a9 ca3f 3134 e4a1 ae95 da3f
00000100: ad05 d053 7218 c93f a976 0984 7e01 f1bf
00000110: 1fc4 31a1 5bfe ebbf 2fd5 4ae3 1e68 e73f
00000120: 44c4 5f42 b5fe f23f 8501 2f70 4d77 df3f
00000130: c66f 300e d446 df3f b9af 9f49 a7f5 eebf
00000140: d3dc 55a9 192d e8bf 6bff 9943 96fa d2bf
00000150: ddd0 ed2a 1ea1 f63f 9b85 afb5 8908 e33f
00000160: 5669 0abe 061e d2bf 71f2 9471 3e0c f2bf
00000170: c037 2d11 12db dabf 40c1 8c1d 1f24 a7bf
00000180: 15c1 42f4 1f04 c6bf 7d22 483d 8ab7 ec3f
00000190: 651f 7868 8726 ff3f 47cd 05ef 753e e53f
000001a0: 05c7 a321 f87f d23f 0256 ff60 167f bcbf
000001b0: 3714 be11 59ef e13f b422 61e4 e5a1 db3f
000001c0: b1e0 3385 67ea e0bf d344 5f31 dd13 d9bf
000001d0: c319 188f 706e e13f cec3 52f1 3655 ecbf
000001e0: 1bc2 2c6a d31e f33f c214 0ac0 0fc4 dc3f
000001f0: 6a66 1ff3 07c2 e4bf 8448 ca05 af6a d7bf
00000200: 27b0 f78d aa0d f43f a874 19e3 2a6c f3bf
00000210: 98e0 7047 e30e df3f b5cd a0eb 9d1b debf
00000220: 09e1 4433 0371 f5bf 0f93 6a5b 1e48 e93f
00000230: 4fc2 7e63 f4d0 e4bf 1e07 6157 6d8f e33f
00000240: e386 16f6 1349 933f 8ebd f85a 2299 eb3f
00000250: 1ba3 8af0 d216 f2bf 60d3 f357 6a18 f43f
00000260: c95a 5c98 478e ee3f 745f ee7b be12 f13f
00000270: ad82 59c3 4b59 e4bf a20f d866 8fae aa3f
00000280: 209f dce3 f178 debf 6edd fc16 da89 edbf
00000290: bb0a 581f 88d0 d13f abc0 7c1d 9101 e5bf
000002a0: 49eb dfa0 cab1 dc3f 4cdc 5833 0c76 d33f
000002b0: 22bf 7367 7050 e5bf 601e 4e51 5e2d d5bf
000002c0: 9085 7a8c 17f3 e83f f97c 419f 1861 d83f
000002d0: 2f85 e281 dc65 dfbf f040 7b3b 7fb0 fcbf
000002e0: f0dd 90fe d936 aebf fc9e aa80 29e2 dc3f
000002f0: 3e85 e4d9 19a6 e7bf 5077 7381 b759 e2bf
00000300: 30d6 51e6 48e1 f1bf bea3 96bf 3c8e eb3f
00000310: 5174 2be3 12e3 db3f 8f37 74eb de0a f93f
-0.15865977756472688 0.15433821732435804 -1.2682262465146832 -0.6950093614776767 1.30064575325147 -0.4943810781041434 -0.7853495089588463 0.589963019830688
-0.4083146055286273 -0.3205625296564903 1.0111544316927952 -0.3835811775364942 -0.3776437952656476 1.0312481827280322 -0.6134739232179508 0.9732446441912281
0.6654526945494286 -1.4806850741617406 0.490538533593395 0.3074429832065258 -1.4411765163001444 0.7360904673495074 0.35080476508355474 -1.1483103962785612
0.4533557149170823 1.5844649997940017 1.2695964808479316 -0.02711869515683473 -0.7683468027508303 -0.5439785933646932 0.20828869529870783 0.41538587388714904
0.19605855076228576 -1.0628647954648989 -0.8747995518043615 0.7314600409796749 1.1871845810640176 0.4916566463034758 0.48869801889099695 -0.9674869955028874
-0.7555054004032179 -0.2965446148082182 1.4143354107773611 0.5947922276065357 -0.2830826621881405 -1.1279892384328856 -0.4196210067501589 -0.04519746051517126
-0.1720008795432554 0.8974047848615353 1.9469064789609203 0.6638745945369146 0.28906062398083093 -0.11131420009709106 0.5604672762425541 0.4317564707057884
-0.5286138154615597 -0.39183740445612364 0.5447314066703303 -0.8854021752687176 1.1950258395628512 0.4494666457542956 -0.6486854313363442 -0.3658864552063579
1.2533364816290573 -1.2139080878326158 0.48528367973950415 -0.47043560038147386 -1.3400909426400764 0.7900535378908858 -0.6505071585907646 0.6112581926938423
0.018833457846659917 0.8624431397237673 -1.1305722614435527 1.2559607921259257 0.9548681236072635 1.0670761910496056 -0.6359003844664436 0.052113038353154964
-0.47613188984040455 -0.9230776261310163 0.27835276661805225 -0.6564412666248435 0.44835153303545333 0.30408005728117327 -0.6660692234563366 -0.3308940690990081
0.7796743148539225 0.3809262805206824 -0.49059212383334033 -1.793090088223888 -0.05901223404401523 0.4513038403042484 -0.7390259986606578 -0.5734517601338016
-1.1175011631834302 0.8611129514657632 0.4357344835714843 1.5651539990826426
